…
// RUN: bef_executor --work_queue_type=mstd $(bef_name %s) | FileCheck %s --dump-input=fail
// RUN: bef_executor --work_queue_type=s $(bef_name %s) | FileCheck %s --dump-input=fail

// Model: "resnet50"
// __________________________________________________________________________________________________
// Layer (type)                    Output Shape         Param #     Connected to
// ==================================================================================================
// input_1 (InputLayer)            [(1, 224, 224, 3)]   0
// __________________________________________________________________________________________________
// conv1_pad (ZeroPadding2D)       (1, 230, 230, 3)     0           input_1[0][0]
// __________________________________________________________________________________________________
// conv1 (Conv2D)                  (1, 112, 112, 64)    9408        conv1_pad[0][0]
// __________________________________________________________________________________________________
// bn_conv1 (BatchNormalization)   (1, 112, 112, 64)    256         conv1[0][0]
// __________________________________________________________________________________________________
// activation (Activation)         (1, 112, 112, 64)    0           bn_conv1[0][0]
// __________________________________________________________________________________________________
// max_pooling2d (MaxPooling2D)    (1, 56, 56, 64)      0           activation[0][0]
// __________________________________________________________________________________________________
// res2a_branch2a (Conv2D)         (1, 56, 56, 64)      4096        max_pooling2d[0][0]
// __________________________________________________________________________________________________
// bn2a_branch2a (BatchNormalizati (1, 56, 56, 64)      256         res2a_branch2a[0][0]
// __________________________________________________________________________________________________
// activation_1 (Activation)       (1, 56, 56, 64)      0           bn2a_branch2a[0][0]
// __________________________________________________________________________________________________
// res2a_branch2b (Conv2D)         (1, 56, 56, 64)      36864       activation_1[0][0]
// __________________________________________________________________________________________________
// bn2a_branch2b (BatchNormalizati (1, 56, 56, 64)      256         res2a_branch2b[0][0]
// __________________________________________________________________________________________________
// activation_2 (Activation)       (1, 56, 56, 64)      0           bn2a_branch2b[0][0]
// __________________________________________________________________________________________________
// res2a_branch2c (Conv2D)         (1, 56, 56, 256)     16384       activation_2[0][0]
// __________________________________________________________________________________________________
// res2a_branch1 (Conv2D)          (1, 56, 56, 256)     16384       max_pooling2d[0][0]
// __________________________________________________________________________________________________
// bn2a_branch2c (BatchNormalizati (1, 56, 56, 256)     1024        res2a_branch2c[0][0]
// __________________________________________________________________________________________________
// bn2a_branch1 (BatchNormalizatio (1, 56, 56, 256)     1024        res2a_branch1[0][0]
// __________________________________________________________________________________________________
// add (Add)                       (1, 56, 56, 256)     0           bn2a_branch2c[0][0]
// bn2a_branch1[0][0]
// __________________________________________________________________________________________________
// activation_3 (Activation)       (1, 56, 56, 256)     0           add[0][0]
// __________________________________________________________________________________________________
// res2b_branch2a (Conv2D)         (1, 56, 56, 64)      16384       activation_3[0][0]
// __________________________________________________________________________________________________
// bn2b_branch2a (BatchNormalizati (1, 56, 56, 64)      256         res2b_branch2a[0][0]
// __________________________________________________________________________________________________
// activation_4 (Activation)       (1, 56, 56, 64)      0           bn2b_branch2a[0][0]
// __________________________________________________________________________________________________
// res2b_branch2b (Conv2D)         (1, 56, 56, 64)      36864       activation_4[0][0]
// __________________________________________________________________________________________________
// bn2b_branch2b (BatchNormalizati (1, 56, 56, 64)      256         res2b_branch2b[0][0]
// __________________________________________________________________________________________________
// activation_5 (Activation)       (1, 56, 56, 64)      0           bn2b_branch2b[0][0]
// __________________________________________________________________________________________________
// res2b_branch2c (Conv2D)         (1, 56, 56, 256)     16384       activation_5[0][0]
// __________________________________________________________________________________________________
// bn2b_branch2c (BatchNormalizati (1, 56, 56, 256)     1024        res2b_branch2c[0][0]
// __________________________________________________________________________________________________
// add_1 (Add)                     (1, 56, 56, 256)     0           bn2b_branch2c[0][0]
// activation_3[0][0]
// __________________________________________________________________________________________________
// activation_6 (Activation)       (1, 56, 56, 256)     0           add_1[0][0]
// __________________________________________________________________________________________________
// res2c_branch2a (Conv2D)         (1, 56, 56, 64)      16384       activation_6[0][0]
// __________________________________________________________________________________________________
// bn2c_branch2a (BatchNormalizati (1, 56, 56, 64)      256         res2c_branch2a[0][0]
// __________________________________________________________________________________________________
// activation_7 (Activation)       (1, 56, 56, 64)      0           bn2c_branch2a[0][0]
// __________________________________________________________________________________________________
// res2c_branch2b (Conv2D)         (1, 56, 56, 64)      36864       activation_7[0][0]
// __________________________________________________________________________________________________
// bn2c_branch2b (BatchNormalizati (1, 56, 56, 64)      256         res2c_branch2b[0][0]
// __________________________________________________________________________________________________
// activation_8 (Activation)       (1, 56, 56, 64)      0           bn2c_branch2b[0][0]
// __________________________________________________________________________________________________
// res2c_branch2c (Conv2D)         (1, 56, 56, 256)     16384       activation_8[0][0]
// __________________________________________________________________________________________________
// bn2c_branch2c (BatchNormalizati (1, 56, 56, 256)     1024        res2c_branch2c[0][0]
// __________________________________________________________________________________________________
// add_2 (Add)                     (1, 56, 56, 256)     0           bn2c_branch2c[0][0]
// activation_6[0][0]
// __________________________________________________________________________________________________
// activation_9 (Activation)       (1, 56, 56, 256)     0           add_2[0][0]
// __________________________________________________________________________________________________
// res3a_branch2a (Conv2D)         (1, 56, 56, 128)     32768       activation_9[0][0]
// __________________________________________________________________________________________________
// bn3a_branch2a (BatchNormalizati (1, 56, 56, 128)     512         res3a_branch2a[0][0]
// __________________________________________________________________________________________________
// activation_10 (Activation)      (1, 56, 56, 128)     0           bn3a_branch2a[0][0]
// __________________________________________________________________________________________________
// res3a_branch2b (Conv2D)         (1, 28, 28, 128)     147456      activation_10[0][0]
// __________________________________________________________________________________________________
// bn3a_branch2b (BatchNormalizati (1, 28, 28, 128)     512         res3a_branch2b[0][0]
// __________________________________________________________________________________________________
// activation_11 (Activation)      (1, 28, 28, 128)     0           bn3a_branch2b[0][0]
// __________________________________________________________________________________________________
// res3a_branch2c (Conv2D)         (1, 28, 28, 512)     65536       activation_11[0][0]
// __________________________________________________________________________________________________
// res3a_branch1 (Conv2D)          (1, 28, 28, 512)     131072      activation_9[0][0]
// __________________________________________________________________________________________________
// bn3a_branch2c (BatchNormalizati (1, 28, 28, 512)     2048        res3a_branch2c[0][0]
// __________________________________________________________________________________________________
// bn3a_branch1 (BatchNormalizatio (1, 28, 28, 512)     2048        res3a_branch1[0][0]
// __________________________________________________________________________________________________
// add_3 (Add)                     (1, 28, 28, 512)     0           bn3a_branch2c[0][0]
// bn3a_branch1[0][0]
// __________________________________________________________________________________________________
// activation_12 (Activation)      (1, 28, 28, 512)     0           add_3[0][0]
// __________________________________________________________________________________________________
// res3b_branch2a (Conv2D)         (1, 28, 28, 128)     65536       activation_12[0][0]
// __________________________________________________________________________________________________
// bn3b_branch2a (BatchNormalizati (1, 28, 28, 128)     512         res3b_branch2a[0][0]
// __________________________________________________________________________________________________
// activation_13 (Activation)      (1, 28, 28, 128)     0           bn3b_branch2a[0][0]
// __________________________________________________________________________________________________
// res3b_branch2b (Conv2D)         (1, 28, 28, 128)     147456      activation_13[0][0]
// __________________________________________________________________________________________________
// bn3b_branch2b (BatchNormalizati (1, 28, 28, 128)     512         res3b_branch2b[0][0]
// __________________________________________________________________________________________________
// activation_14 (Activation)      (1, 28, 28, 128)     0           bn3b_branch2b[0][0]
// __________________________________________________________________________________________________
// res3b_branch2c (Conv2D)         (1, 28, 28, 512)     65536       activation_14[0][0]
// __________________________________________________________________________________________________
// bn3b_branch2c (BatchNormalizati (1, 28, 28, 512)     2048        res3b_branch2c[0][0]
// __________________________________________________________________________________________________
// add_4 (Add)                     (1, 28, 28, 512)     0           bn3b_branch2c[0][0]
// activation_12[0][0]
// __________________________________________________________________________________________________
// activation_15 (Activation)      (1, 28, 28, 512)     0           add_4[0][0]
// __________________________________________________________________________________________________
// res3c_branch2a (Conv2D)         (1, 28, 28, 128)     65536       activation_15[0][0]
// __________________________________________________________________________________________________
// bn3c_branch2a (BatchNormalizati (1, 28, 28, 128)     512         res3c_branch2a[0][0]
// __________________________________________________________________________________________________
// activation_16 (Activation)      (1, 28, 28, 128)     0           bn3c_branch2a[0][0]
// __________________________________________________________________________________________________
// res3c_branch2b (Conv2D)         (1, 28, 28, 128)     147456      activation_16[0][0]
// __________________________________________________________________________________________________
// bn3c_branch2b (BatchNormalizati (1, 28, 28, 128)     512         res3c_branch2b[0][0]
// __________________________________________________________________________________________________
// activation_17 (Activation)      (1, 28, 28, 128)     0           bn3c_branch2b[0][0]
// __________________________________________________________________________________________________
// res3c_branch2c (Conv2D)         (1, 28, 28, 512)     65536       activation_17[0][0]
// __________________________________________________________________________________________________
// bn3c_branch2c (BatchNormalizati (1, 28, 28, 512)     2048        res3c_branch2c[0][0]
// __________________________________________________________________________________________________
// add_5 (Add)                     (1, 28, 28, 512)     0           bn3c_branch2c[0][0]
// activation_15[0][0]
// __________________________________________________________________________________________________
// activation_18 (Activation)      (1, 28, 28, 512)     0           add_5[0][0]
// __________________________________________________________________________________________________
// res3d_branch2a (Conv2D)         (1, 28, 28, 128)     65536       activation_18[0][0]
// __________________________________________________________________________________________________
// bn3d_branch2a (BatchNormalizati (1, 28, 28, 128)     512         res3d_branch2a[0][0]
// __________________________________________________________________________________________________
// activation_19 (Activation)      (1, 28, 28, 128)     0           bn3d_branch2a[0][0]
// __________________________________________________________________________________________________
// res3d_branch2b (Conv2D)         (1, 28, 28, 128)     147456      activation_19[0][0]
// __________________________________________________________________________________________________
// bn3d_branch2b (BatchNormalizati (1, 28, 28, 128)     512         res3d_branch2b[0][0]
// __________________________________________________________________________________________________
// activation_20 (Activation)      (1, 28, 28, 128)     0           bn3d_branch2b[0][0]
// __________________________________________________________________________________________________
// res3d_branch2c (Conv2D)         (1, 28, 28, 512)     65536       activation_20[0][0]
// __________________________________________________________________________________________________
// bn3d_branch2c (BatchNormalizati (1, 28, 28, 512)     2048        res3d_branch2c[0][0]
// __________________________________________________________________________________________________
// add_6 (Add)                     (1, 28, 28, 512)     0           bn3d_branch2c[0][0]
// activation_18[0][0]
// __________________________________________________________________________________________________
// activation_21 (Activation)      (1, 28, 28, 512)     0           add_6[0][0]
// __________________________________________________________________________________________________
// res4a_branch2a (Conv2D)         (1, 28, 28, 256)     131072      activation_21[0][0]
// __________________________________________________________________________________________________
// bn4a_branch2a (BatchNormalizati (1, 28, 28, 256)     1024        res4a_branch2a[0][0]
// __________________________________________________________________________________________________
// activation_22 (Activation)      (1, 28, 28, 256)     0           bn4a_branch2a[0][0]
// __________________________________________________________________________________________________
// res4a_branch2b (Conv2D)         (1, 14, 14, 256)     589824      activation_22[0][0]
// __________________________________________________________________________________________________
// bn4a_branch2b (BatchNormalizati (1, 14, 14, 256)     1024        res4a_branch2b[0][0]
// __________________________________________________________________________________________________
// activation_23 (Activation)      (1, 14, 14, 256)     0           bn4a_branch2b[0][0]
// __________________________________________________________________________________________________
// res4a_branch2c (Conv2D)         (1, 14, 14, 1024)    262144      activation_23[0][0]
// __________________________________________________________________________________________________
// res4a_branch1 (Conv2D)          (1, 14, 14, 1024)    524288      activation_21[0][0]
// __________________________________________________________________________________________________
// bn4a_branch2c (BatchNormalizati (1, 14, 14, 1024)    4096        res4a_branch2c[0][0]
// __________________________________________________________________________________________________
// bn4a_branch1 (BatchNormalizatio (1, 14, 14, 1024)    4096        res4a_branch1[0][0]
// __________________________________________________________________________________________________
// add_7 (Add)                     (1, 14, 14, 1024)    0           bn4a_branch2c[0][0]
// bn4a_branch1[0][0]
// __________________________________________________________________________________________________
// activation_24 (Activation)      (1, 14, 14, 1024)    0           add_7[0][0]
// __________________________________________________________________________________________________
// res4b_branch2a (Conv2D)         (1, 14, 14, 256)     262144      activation_24[0][0]
// __________________________________________________________________________________________________
// bn4b_branch2a (BatchNormalizati (1, 14, 14, 256)     1024        res4b_branch2a[0][0]
// __________________________________________________________________________________________________
// activation_25 (Activation)      (1, 14, 14, 256)     0           bn4b_branch2a[0][0]
// __________________________________________________________________________________________________
// res4b_branch2b (Conv2D)         (1, 14, 14, 256)     589824      activation_25[0][0]
// __________________________________________________________________________________________________
// bn4b_branch2b (BatchNormalizati (1, 14, 14, 256)     1024        res4b_branch2b[0][0]
// __________________________________________________________________________________________________
// activation_26 (Activation)      (1, 14, 14, 256)     0           bn4b_branch2b[0][0]
// __________________________________________________________________________________________________
// res4b_branch2c (Conv2D)         (1, 14, 14, 1024)    262144      activation_26[0][0]
// __________________________________________________________________________________________________
// bn4b_branch2c (BatchNormalizati (1, 14, 14, 1024)    4096        res4b_branch2c[0][0]
// __________________________________________________________________________________________________
// add_8 (Add)                     (1, 14, 14, 1024)    0           bn4b_branch2c[0][0]
// activation_24[0][0]
// __________________________________________________________________________________________________
// activation_27 (Activation)      (1, 14, 14, 1024)    0           add_8[0][0]
// __________________________________________________________________________________________________
// res4c_branch2a (Conv2D)         (1, 14, 14, 256)     262144      activation_27[0][0]
// __________________________________________________________________________________________________
// bn4c_branch2a (BatchNormalizati (1, 14, 14, 256)     1024        res4c_branch2a[0][0]
// __________________________________________________________________________________________________
// activation_28 (Activation)      (1, 14, 14, 256)     0           bn4c_branch2a[0][0]
// __________________________________________________________________________________________________
// res4c_branch2b (Conv2D)         (1, 14, 14, 256)     589824      activation_28[0][0]
// __________________________________________________________________________________________________
// bn4c_branch2b (BatchNormalizati (1, 14, 14, 256)     1024        res4c_branch2b[0][0]
// __________________________________________________________________________________________________
// activation_29 (Activation)      (1, 14, 14, 256)     0           bn4c_branch2b[0][0]
// __________________________________________________________________________________________________
// res4c_branch2c (Conv2D)         (1, 14, 14, 1024)    262144      activation_29[0][0]
// __________________________________________________________________________________________________
// bn4c_branch2c (BatchNormalizati (1, 14, 14, 1024)    4096        res4c_branch2c[0][0]
// __________________________________________________________________________________________________
// add_9 (Add)                     (1, 14, 14, 1024)    0           bn4c_branch2c[0][0]
// activation_27[0][0]
// __________________________________________________________________________________________________
// activation_30 (Activation)      (1, 14, 14, 1024)    0           add_9[0][0]
// __________________________________________________________________________________________________
// res4d_branch2a (Conv2D)         (1, 14, 14, 256)     262144      activation_30[0][0]
// __________________________________________________________________________________________________
// bn4d_branch2a (BatchNormalizati (1, 14, 14, 256)     1024        res4d_branch2a[0][0]
// __________________________________________________________________________________________________
// activation_31 (Activation)      (1, 14, 14, 256)     0           bn4d_branch2a[0][0]
// __________________________________________________________________________________________________
// res4d_branch2b (Conv2D)         (1, 14, 14, 256)     589824      activation_31[0][0]
// __________________________________________________________________________________________________
// bn4d_branch2b (BatchNormalizati (1, 14, 14, 256)     1024        res4d_branch2b[0][0]
// __________________________________________________________________________________________________
// activation_32 (Activation)      (1, 14, 14, 256)     0           bn4d_branch2b[0][0]
// __________________________________________________________________________________________________
// res4d_branch2c (Conv2D)         (1, 14, 14, 1024)    262144      activation_32[0][0]
// __________________________________________________________________________________________________
// bn4d_branch2c (BatchNormalizati (1, 14, 14, 1024)    4096        res4d_branch2c[0][0]
// __________________________________________________________________________________________________
// add_10 (Add)                    (1, 14, 14, 1024)    0           bn4d_branch2c[0][0]
// activation_30[0][0]
// __________________________________________________________________________________________________
// activation_33 (Activation)      (1, 14, 14, 1024)    0           add_10[0][0]
// __________________________________________________________________________________________________
// res4e_branch2a (Conv2D)         (1, 14, 14, 256)     262144      activation_33[0][0]
// __________________________________________________________________________________________________
// bn4e_branch2a (BatchNormalizati (1, 14, 14, 256)     1024        res4e_branch2a[0][0]
// __________________________________________________________________________________________________
// activation_34 (Activation)      (1, 14, 14, 256)     0           bn4e_branch2a[0][0]
// __________________________________________________________________________________________________
// res4e_branch2b (Conv2D)         (1, 14, 14, 256)     589824      activation_34[0][0]
// __________________________________________________________________________________________________
// bn4e_branch2b (BatchNormalizati (1, 14, 14, 256)     1024        res4e_branch2b[0][0]
// __________________________________________________________________________________________________
// activation_35 (Activation)      (1, 14, 14, 256)     0           bn4e_branch2b[0][0]
// __________________________________________________________________________________________________
// res4e_branch2c (Conv2D)         (1, 14, 14, 1024)    262144      activation_35[0][0]
// __________________________________________________________________________________________________
// bn4e_branch2c (BatchNormalizati (1, 14, 14, 1024)    4096        res4e_branch2c[0][0]
// __________________________________________________________________________________________________
// add_11 (Add)                    (1, 14, 14, 1024)    0           bn4e_branch2c[0][0]
// activation_33[0][0]
// __________________________________________________________________________________________________
// activation_36 (Activation)      (1, 14, 14, 1024)    0           add_11[0][0]
// __________________________________________________________________________________________________
// res4f_branch2a (Conv2D)         (1, 14, 14, 256)     262144      activation_36[0][0]
// __________________________________________________________________________________________________
// bn4f_branch2a (BatchNormalizati (1, 14, 14, 256)     1024        res4f_branch2a[0][0]
// __________________________________________________________________________________________________
// activation_37 (Activation)      (1, 14, 14, 256)     0           bn4f_branch2a[0][0]
// __________________________________________________________________________________________________
// res4f_branch2b (Conv2D)         (1, 14, 14, 256)     589824      activation_37[0][0]
// __________________________________________________________________________________________________
// bn4f_branch2b (BatchNormalizati (1, 14, 14, 256)     1024        res4f_branch2b[0][0]
// __________________________________________________________________________________________________
// activation_38 (Activation)      (1, 14, 14, 256)     0           bn4f_branch2b[0][0]
// __________________________________________________________________________________________________
// res4f_branch2c (Conv2D)         (1, 14, 14, 1024)    262144      activation_38[0][0]
// __________________________________________________________________________________________________
// bn4f_branch2c (BatchNormalizati (1, 14, 14, 1024)    4096        res4f_branch2c[0][0]
// __________________________________________________________________________________________________
// add_12 (Add)                    (1, 14, 14, 1024)    0           bn4f_branch2c[0][0]
// activation_36[0][0]
// __________________________________________________________________________________________________
// activation_39 (Activation)      (1, 14, 14, 1024)    0           add_12[0][0]
// __________________________________________________________________________________________________
// res5a_branch2a (Conv2D)         (1, 14, 14, 512)     524288      activation_39[0][0]
// __________________________________________________________________________________________________
// bn5a_branch2a (BatchNormalizati (1, 14, 14, 512)     2048        res5a_branch2a[0][0]
// __________________________________________________________________________________________________
// activation_40 (Activation)      (1, 14, 14, 512)     0           bn5a_branch2a[0][0]
// __________________________________________________________________________________________________
// res5a_branch2b (Conv2D)         (1, 7, 7, 512)       2359296     activation_40[0][0]
// __________________________________________________________________________________________________
// bn5a_branch2b (BatchNormalizati (1, 7, 7, 512)       2048        res5a_branch2b[0][0]
// __________________________________________________________________________________________________
// activation_41 (Activation)      (1, 7, 7, 512)       0           bn5a_branch2b[0][0]
// __________________________________________________________________________________________________
// res5a_branch2c (Conv2D)         (1, 7, 7, 2048)      1048576     activation_41[0][0]
// __________________________________________________________________________________________________
// res5a_branch1 (Conv2D)          (1, 7, 7, 2048)      2097152     activation_39[0][0]
// __________________________________________________________________________________________________
// bn5a_branch2c (BatchNormalizati (1, 7, 7, 2048)      8192        res5a_branch2c[0][0]
// __________________________________________________________________________________________________
// bn5a_branch1 (BatchNormalizatio (1, 7, 7, 2048)      8192        res5a_branch1[0][0]
// __________________________________________________________________________________________________
// add_13 (Add)                    (1, 7, 7, 2048)      0           bn5a_branch2c[0][0]
// bn5a_branch1[0][0]
// __________________________________________________________________________________________________
// activation_42 (Activation)      (1, 7, 7, 2048)      0           add_13[0][0]
// __________________________________________________________________________________________________
// res5b_branch2a (Conv2D)         (1, 7, 7, 512)       1048576     activation_42[0][0]
// __________________________________________________________________________________________________
// bn5b_branch2a (BatchNormalizati (1, 7, 7, 512)       2048        res5b_branch2a[0][0]
// __________________________________________________________________________________________________
// activation_43 (Activation)      (1, 7, 7, 512)       0           bn5b_branch2a[0][0]
// __________________________________________________________________________________________________
// res5b_branch2b (Conv2D)         (1, 7, 7, 512)       2359296     activation_43[0][0]
// __________________________________________________________________________________________________
// bn5b_branch2b (BatchNormalizati (1, 7, 7, 512)       2048        res5b_branch2b[0][0]
// __________________________________________________________________________________________________
// activation_44 (Activation)      (1, 7, 7, 512)       0           bn5b_branch2b[0][0]
// __________________________________________________________________________________________________
// res5b_branch2c (Conv2D)         (1, 7, 7, 2048)      1048576     activation_44[0][0]
// __________________________________________________________________________________________________
// bn5b_branch2c (BatchNormalizati (1, 7, 7, 2048)      8192        res5b_branch2c[0][0]
// __________________________________________________________________________________________________
// add_14 (Add)                    (1, 7, 7, 2048)      0           bn5b_branch2c[0][0]
// activation_42[0][0]
// __________________________________________________________________________________________________
// activation_45 (Activation)      (1, 7, 7, 2048)      0           add_14[0][0]
// __________________________________________________________________________________________________
// res5c_branch2a (Conv2D)         (1, 7, 7, 512)       1048576     activation_45[0][0]
// __________________________________________________________________________________________________
// bn5c_branch2a (BatchNormalizati (1, 7, 7, 512)       2048        res5c_branch2a[0][0]
// __________________________________________________________________________________________________
// activation_46 (Activation)      (1, 7, 7, 512)       0           bn5c_branch2a[0][0]
// __________________________________________________________________________________________________
// res5c_branch2b (Conv2D)         (1, 7, 7, 512)       2359296     activation_46[0][0]
// __________________________________________________________________________________________________
// bn5c_branch2b (BatchNormalizati (1, 7, 7, 512)       2048        res5c_branch2b[0][0]
// __________________________________________________________________________________________________
// activation_47 (Activation)      (1, 7, 7, 512)       0           bn5c_branch2b[0][0]
// __________________________________________________________________________________________________
// res5c_branch2c (Conv2D)         (1, 7, 7, 2048)      1048576     activation_47[0][0]
// __________________________________________________________________________________________________
// bn5c_branch2c (BatchNormalizati (1, 7, 7, 2048)      8192        res5c_branch2c[0][0]
// __________________________________________________________________________________________________
// add_15 (Add)                    (1, 7, 7, 2048)      0           bn5c_branch2c[0][0]
// activation_45[0][0]
// __________________________________________________________________________________________________
// activation_48 (Activation)      (1, 7, 7, 2048)      0           add_15[0][0]
// __________________________________________________________________________________________________
// reduce_mean (Lambda)            (1, 2048)            0           activation_48[0][0]
// __________________________________________________________________________________________________
// fc1000 (Dense)                  (1, 1001)            2051049     reduce_mean[0][0]
// ==================================================================================================
// Total params: 25,612,201
// Trainable params: 25,559,081
// Non-trainable params: 53,120
// __________________________________________________________________________________________________

func @resnet50() {
    %path = "tfrt_test.get_string"() { value = "integrationtest/resnet/test_data/resnet50_graph_inference_tensors.btf" } : () -> !tfrt.string
…
